demo/model.pt (torch, 221330 bytes, 50 tensors)

_offsets f4 [119, 1]
000000 00 00 00 00 92 dd 99 c0 00 00 00 00 00 00 00 00
       0.0 -4.808297 0.0 0.0
000010 00 00 00 00 00 00 00 00 00 00 00 00 00 00 00 00
       0.0 0.0 0.0 0.0
000020 92 ae 4b c0 00 00 00 00 00 00 00 00 00 00 00 00
       -3.18253 0.0 0.0 0.0
000030 00 00 00 00 00 00 00 00 00 00 00 00 00 00 00 00
       0.0 0.0 0.0 0.0
000040 00 00 00 00 00 00 00 00 00 00 00 00 00 00 00 00
       0.0 0.0 0.0 0.0
000050 00 00 00 00 00 00 00 00 00 00 00 00 00 00 00 00
       0.0 0.0 0.0 0.0
000060 00 00 00 00 00 00 00 00 00 00 00 00 00 00 00 00
       0.0 0.0 0.0 0.0
000070 00 00 00 00 00 00 00 00 00 00 00 00 00 00 00 00
       0.0 0.0 0.0 0.0
000080 00 00 00 00 00 00 00 00 00 00 00 00 00 00 00 00
       0.0 0.0 0.0 0.0
000090 00 00 00 00 00 00 00 00 00 00 00 00 00 00 00 00
       0.0 0.0 0.0 0.0
0000a0 00 00 00 00 00 00 00 00 00 00 00 00 00 00 00 00
       0.0 0.0 0.0 0.0
0000b0 00 00 00 00 00 00 00 00 00 00 00 00 00 00 00 00
       0.0 0.0 0.0 0.0
0000c0 00 00 00 00 00 00 00 00 00 00 00 00 00 00 00 00
       0.0 0.0 0.0 0.0
0000d0 00 00 00 00 00 00 00 00 00 00 00 00 00 00 00 00
       0.0 0.0 0.0 0.0
0000e0 00 00 00 00 00 00 00 00 00 00 00 00 00 00 00 00
       0.0 0.0 0.0 0.0
0000f0 00 00 00 00 00 00 00 00 00 00 00 00 00 00 00 00
       0.0 0.0 0.0 0.0
000100 00 00 00 00 00 00 00 00 00 00 00 00 00 00 00 00
       0.0 0.0 0.0 0.0
000110 00 00 00 00 00 00 00 00 00 00 00 00 00 00 00 00
       0.0 0.0 0.0 0.0
000120 00 00 00 00 00 00 00 00 00 00 00 00 00 00 00 00
       0.0 0.0 0.0 0.0
000130 00 00 00 00 00 00 00 00 00 00 00 00 00 00 00 00
       0.0 0.0 0.0 0.0
000140 00 00 00 00 00 00 00 00 00 00 00 00 00 00 00 00
       0.0 0.0 0.0 0.0
000150 00 00 00 00 00 00 00 00 00 00 00 00 00 00 00 00
       0.0 0.0 0.0 0.0
000160 00 00 00 00 00 00 00 00 00 00 00 00 00 00 00 00
       0.0 0.0 0.0 0.0
000170 00 00 00 00 00 00 00 00 00 00 00 00 00 00 00 00
       0.0 0.0 0.0 0.0
000180 00 00 00 00 00 00 00 00 00 00 00 00 00 00 00 00
       0.0 0.0 0.0 0.0
000190 00 00 00 00 00 00 00 00 00 00 00 00 00 00 00 00
       0.0 0.0 0.0 0.0
0001a0 00 00 00 00 00 00 00 00 00 00 00 00 00 00 00 00
       0.0 0.0 0.0 0.0
0001b0 00 00 00 00 00 00 00 00 00 00 00 00 00 00 00 00
       0.0 0.0 0.0 0.0
0001c0 00 00 00 00 00 00 00 00 00 00 00 00 00 00 00 00
       0.0 0.0 0.0 0.0
0001d0 00 00 00 00 00 00 00 00 00 00 00 00
       0.0 0.0 0.0

ZBL_coeff f4 [4]
000000 c7 29 3a 3e ce 88 02 3f 60 76 8f 3e c6 c4 e6 3c
       0.1818 0.5099 0.2802 0.02817

ZBL_exp f4 [4]
000000 cd cc 4c c0 93 3a 71 bf e9 48 ce be 3b 70 4e be
       -3.2 -0.9423 -0.4029 -0.2016

_embeddings f4 [119, 32]
000000 69 98 94 bc 81 58 51 3d cf bc 93 bd 04 da 2f bc
       -0.018139081 0.051109795 -0.07213747 -0.010733131
000010 29 5a cd 3c 6a 51 a4 bc 6d c0 4e bd 90 66 6a bd
       0.025067406 -0.020058353 -0.05047648 -0.057226717
000020 49 3a 88 bd 90 12 ca 3c 55 56 65 3d 0a be 0b 3c
       -0.06651742 0.024667054 0.055990536 0.008529196
000030 d3 f2 91 bd bc fd 1d bd 81 3c 93 3d 6f 62 32 3d
       -0.07126393 -0.038572058 0.071892746 0.043550905
000040 cb 4a b7 bc 85 14 05 3d 06 96 7a 3c 6c 79 12 bd
       -0.022374531 0.032490272 0.015294557 -0.03576033
000050 cb 75 07 bd 7e d3 97 bd bc fa e0 3d a9 a4 16 bd
       -0.03307132 -0.07413386 0.10985324 -0.036778126
000060 7d c7 c3 bc a6 c9 f2 3c c0 79 a8 3d f8 a5 86 3d
       -0.023898834 0.02963717 0.08226347 0.06574625
000070 49 a2 c3 3b d6 0f 98 3c 9a 5a 3c bd fe de 8c 3d
       0.0059702736 0.018562239 -0.045984842 0.0687847
000080 ea 99 90 3c 82 b7 e0 3d 55 ae 78 be b5 ff 0b bb
       0.017651517 0.10972501 -0.24285252 -0.002136213
000090 f7 cf 3a 3c 8e 11 12 3f 49 7a f9 3e 5f 95 02 bf
       0.011402122 0.57058036 0.4872611 -0.5100917
0000a0 78 79 92 be c9 1e 29 be bb c0 07 3e 16 e3 88 be
       -0.28608298 -0.1651565 0.13257115 -0.26735753
0000b0 d1 46 8a 3e bc c3 6b 3e 51 ff 53 3c 12 6b bf bd
       0.27007154 0.23023885 0.01293929 -0.09346594
0000c0 d9 a5 b8 3e b7 95 34 3e 0e c3 c5 be c8 61 20 be
       0.36064032 0.17635237 -0.38625377 -0.156623
0000d0 9d 23 3b bf 57 5f b3 bc 47 ad 08 3e 4d 79 42 3e
       -0.73101217 -0.021896048 0.1334735 0.18991585
0000e0 11 e6 68 be 00 c0 c3 3e 8c 3a 6b 3e 08 0b 34 bd
       -0.22744013 0.38232422 0.22971553 -0.043955833
0000f0 14 ea 42 3e 35 0a c2 3e 5c bf 52 3e 1c b5 bc 3b
       0.19034606 0.37898412 0.2058081 0.0057588946
000100 70 f6 c5 bd 2d 95 1e bd 90 fd 52 3d ba 8d 27 bd
       -0.09666145 -0.038716484 0.051511347 -0.040906645
000110 c9 bd 78 3c 3f 47 04 3d 3d a0 95 3d e4 0c 87 3b
       0.015181967 0.032294508 0.07305954 0.0041214097
000120 a5 63 bd 3c 7e 33 85 bc 01 2e dc bd 2d 69 b3 3d
       0.023118803 -0.016259905 -0.10750962 0.08760295
000130 ab 55 00 3d 21 18 f8 bb fe c0 02 3d 62 93 a1 3d
       0.0313317 -0.0075712358 0.031922333 0.07889439
000140 62 8a 22 3d e5 c6 8c 3d ca cc fc bd ac 37 cf 3c
       0.039682753 0.068738736 -0.12343748 0.025295101
000150 63 37 68 bd 79 96 e3 bd f6 c7 51 bd e1 bd 2f bd
       -0.056693446 -0.11112685 -0.05121609 -0.042905692
000160 c0 70 08 bc 25 c1 1b 3d 03 cf 30 bd 51 c0 be bb
       -0.008327663 0.038025994 -0.04316617 -0.0058212657
000170 26 8a 0d be 02 09 ed ba f6 a1 c8 3d e5 b0 0d 3d
       -0.1382223 -0.001808435 0.097965166 0.034592528
000180 13 b6 46 3d 80 05 2c 3e ea fd dc 3c b0 3e 03 be
       0.048513483 0.16798973 0.026976544 -0.12816882
000190 ec 8f 49 bc 3f d0 12 bb d1 21 24 bd 12 a2 3f 3d
       -0.01230238 -0.0022401956 -0.040071312 0.04678542
0001a0 3b 4d 28 bc 73 c6 ab 3c d8 c0 31 3c 2e a2 0c bd
       -0.010272319 0.020968651 0.0108492 -0.034334354
0001b0 6f d4 30 3d 6a 79 4c bd fe ac 76 3d 57 71 f7 bc
       0.043171342 -0.049920477 0.060223572 -0.030205412
0001c0 25 d2 da bb 91 65 3e 3d 3f 01 29 3d 04 91 bf 3d
       -0.006677883 0.04648358 0.041260954 0.093538314
0001d0 2d 60 8e 3d be 66 d7 3c cf 2b 1f bd 40 b3 5c bd
       0.06951938 0.026294108 -0.03886014 -0.053881884
0001e0 32 db ef 3c 74 06 36 bd 73 9a 1d 3c b4 3a a7 3d
       0.029279325 -0.044439748 0.009619343 0.081654936
0001f0 7e 75 fb bd a8 d2 51 bd 56 fd e5 3c 09 5e 95 3d
       -0.12278269 -0.051226288 0.028074902 0.072933264
000200 39 89 95 3d fe be d3 3d 91 07 14 3d a7 b6 8a 3d
       0.07301564 0.10339163 0.03614003 0.067731194
000210 b6 83 d3 3d 0a b2 bf 3c 8a 6e 9a 3d 0b db 89 bd
       0.10327856 0.023400325 0.07540615 -0.06731232
000220 4c 29 ab 3d 10 0a b4 bd ff 3e e9 bb a2 37 e2 bc
       0.08357486 -0.08790982 -0.0071181054 -0.027614418
000230 52 b3 43 bc be f6 9b 3a 41 99 65 bb 10 33 cf bc
       -0.011944609 0.0011899096 -0.0035033973 -0.025292903
000240 35 c7 00 3c 65 4c d1 bc 8b ca 10 3c 2e 2b 62 3d
       0.007859995 -0.025549123 0.0088373525 0.05521696
000250 1c 41 4a bd ca 3d 2b 3e f3 09 3f bd 9b f9 37 bd
       -0.0493785 0.1672279 -0.046640348 -0.044915777
000260 fa 94 b7 3c 3d 91 bc bc 9d f7 0e bd 97 c1 b4 bd
       0.022409905 -0.023018474 -0.03490411 -0.08825987
000270 fb 3e d9 bc 72 d9 ed bc 86 a4 fa bc 08 a9 b7 3d
       -0.02651929 -0.02903435 -0.030596029 0.08967787
000280 3b 45 a8 3b c1 a2 a9 3c 62 08 af 3d 4f 28 aa bd
       0.005135206 0.02070749 0.08546521 -0.083084695
000290 30 eb d5 bd a9 27 3a 3d 51 6e bc bd 3d 7c 0c bd
       -0.10445249 0.04544798 -0.09200729 -0.03429817
0002a0 4c b0 4e 3c d8 5a b3 bd 4e af f2 bd 72 6d 75 3c
       0.012615275 -0.087575614 -0.11849843 0.014979707
0002b0 ff ea 16 3c 79 f7 d3 bd 72 38 ad 3d af 87 2c bc
       0.009211301 -0.10349936 0.08458032 -0.010530396
0002c0 54 4e a8 3c 00 f0 81 bd db 07 76 3d 96 2a 59 3d
       0.020545162 -0.063446045 0.060066085 0.05301913
0002d0 ac 04 34 3b b4 b4 14 bd 9a c0 13 3c 21 2e e3 3c
       0.0027468605 -0.036305144 0.009018088 0.027731957
0002e0 52 8f e2 ba 04 07 71 bc 04 5e 6f bd 8f f2 8b bd
       -0.0017285144 -0.014711145 -0.05843927 -0.06833374
0002f0 ce 3e bc 3c fe 4e 4d bc dc 38 fa 3c 71 fe 5a 3c
       0.022979166 -0.01253104 0.03054469 0.013366328
000300 09 af a9 3d ae 82 34 3c 76 40 1c be af 09 29 3d
       0.082853384 0.011017485 -0.15258965 0.041269
000310 a5 08 a5 3d 19 e9 8d 3d 29 f5 af bc d5 d3 51 3d
       0.080582894 0.069292255 -0.021479206 0.05122741
000320 f3 f7 9f 3c 43 f9 92 bd d7 1f ba 3d ff 3b 2a 3c
       0.019527411 -0.07176449 0.09088104 0.010390281
000330 df 18 89 3c 2a e2 9a bd f4 36 a8 bc 4f f4 09 3c
       0.016735492 -0.075626686 -0.020534016 0.008420064
000340 11 0d 9b bc be 7d 01 3e 9d 00 c5 bb 06 0c b6 3d
       -0.018927129 0.12645623 -0.006012036 0.08889012
000350 c7 a9 29 3d d4 76 b8 3b a3 55 83 bc b8 b8 79 3d
       0.041421678 0.0056294 -0.016032046 0.060967177
000360 3f c7 13 3d dd 17 d6 bb 92 ac be 3c 3f 76 94 bc
       0.036078688 -0.0065336064 0.023275647 -0.01812279
000370 b8 78 1a 3c 76 ea 66 bd e5 98 30 bd b2 a3 a0 bd
       0.009428196 -0.056375943 -0.04311456 -0.078437224
000380 ec 86 ba 3d 01 aa d3 bd 89 32 e6 bc 63 b3 0d bd
       0.091077656 -0.1033516 -0.028100269 -0.034594905
000390 03 74 47 3d ee e5 58 bc 03 63 42 bd 88 f6 cf bd
       0.04869462 -0.013238413 -0.047457706 -0.10154444
0003a0 47 bc 2a 3d 1e 09 83 3c 30 f3 40 3d 03 58 6b 3d
       0.04168346 0.015995558 0.04710692 0.05745698
0003b0 85 0a da 3d 77 5f 9e bd 71 27 cc bc 84 18 77 bc
       0.10646538 -0.07733052 -0.02492115 -0.015081529
0003c0 61 c5 ca bc b6 0c 2a bb 13 ec 10 bd 9b 17 80 3d
       -0.02475232 -0.0025947518 -0.035381388 0.062545024
0003d0 81 e8 0f 3e 29 a7 54 3d ba 1c 37 3c db ec e3 bb
       0.14053537 0.05191723 0.011176283 -0.0069557256
0003e0 e6 bf 58 3c a8 8d 6b bc 91 4e 1e bc ac 90 81 3d
       0.013229346 -0.014377035 -0.009662286 0.06326422
0003f0 39 4c 84 3d 48 b7 70 bd fb 6e 25 3d 2b bf e9 bc
       0.06459851 -0.05876854 0.040389042 -0.028533539

frequencies f4 [20]
000000 d1 cb 2b 3f 29 c1 e3 3c 24 49 be 3e c9 03 00 3f
       0.67107874 0.027802067 0.37165177 0.50005776
000010 b0 c1 17 3f e2 ee 28 3f c3 76 36 3f 59 2e 45 3f
       0.5927992 0.65989506 0.71274966 0.77023846
000020 6f 56 62 3f 9c c8 67 3f e0 31 82 3f dd d8 88 3f
       0.8841314 0.9054048 1.0171471 1.0691181
000030 9f 01 8f 3f 07 df 97 3f 48 3c 9b 3f b0 18 9f 3f
       1.117237 1.1864938 1.2127771 1.2429409
000040 f5 c7 d6 3f 90 da f4 3f ec d0 08 40 56 63 44 40
       1.6779772 1.91292 2.1377516 3.068563

weight f4 [96, 20]
000000 95 ff d1 3c 4c 28 f8 b7 18 8f 0b bc d2 b1 6f 3b
       0.025634566 -2.9582669e-05 -0.008518003 0.0036574495
000010 17 0d 6f 3c f3 db d1 3c 5c 8f 84 3a 64 d8 8d 3b
       0.014590523 0.025617575 0.0010113525 0.0043287743
000020 75 75 79 bc 5f f7 25 bc e5 09 45 bc 04 7b be bb
       -0.015225758 -0.010129779 -0.012026285 -0.0058130044
000030 4f 33 dd bb 71 0b 2c 3b fc 84 95 3b 93 6f 1e 3c
       -0.006750501 0.0026251937 0.004562972 0.009670156
000040 7e d6 2a bb 73 4a a2 3c 69 e1 8c bc 88 85 42 39
       -0.0026067789 0.01981089 -0.017197328 0.00018551026
000050 8c b6 82 bc f0 96 80 3c ad ac ec bb 23 f8 19 ba
       -0.015956186 0.015696973 -0.007222733 -0.0005873462
000060 eb b6 0b 3c 76 d6 da 3b 85 07 6f 3c 9e bc c5 bb
       0.008527498 0.006678398 0.014589195 -0.006034448
000070 f4 22 e6 bb 57 07 5f bc 1c 4a e0 3a 3c 9e 95 bc
       -0.0070232097 -0.01361259 0.001711193 -0.018263929
000080 de a3 6d 3b 7a 40 48 3c 36 e4 b1 3b 6f c1 00 3c
       0.0036261003 0.012222404 0.005428816 0.007858618
000090 6b 7f 9e 3b e3 04 6b bc 3b 18 dd 3b f8 00 f6 b8
       0.0048369667 -0.014344427 0.0067472733 -0.000117303745
0000a0 87 9d 62 3e c1 d5 81 bd b9 c8 c8 3d 4b 2e cf 3d
       0.22130404 -0.063395984 0.0980391 0.101162516
0000b0 f4 31 9d 3d 65 c8 a5 3d f6 75 75 3d 2b 6d b5 3d
       0.076755434 0.08094863 0.05992695 0.08858713
0000c0 ef b6 b4 3d 67 5d c1 3d cd 0a b6 3d db 43 89 3d
       0.08823954 0.09441643 0.08888779 0.067023955
0000d0 55 da 4e 3d d9 e2 ae bc 2b 2a 40 bd f5 b6 8b bd
       0.050501186 -0.021348404 -0.046915215 -0.06822006
0000e0 fd 63 3f be 4b 1c 8d bd 71 a0 90 3e d3 a0 93 bd
       -0.18690486 -0.06890162 0.28247407 -0.07208409
0000f0 fb 24 77 3c 3a 67 6a 3c 11 01 f6 3c 43 a5 aa bc
       0.0150845 0.014306838 0.030029805 -0.020830756
000100 63 9a 7a bc f5 38 c5 3c 05 4d 4b 3c ef 95 8a bc
       -0.015295598 0.02407501 0.0124085 -0.016917197
000110 2e 06 98 bc 80 6a b7 bc aa 40 95 bc db 4c 6a bc
       -0.018557634 -0.02238965 -0.01821931 -0.01430055
000120 cc 7d 03 bd bb 29 cc bc df f3 b2 bc a9 f1 f4 bb
       -0.03210239 -0.024922242 -0.021844802 -0.007475097
000130 c5 55 9a 3c 94 e6 af 3c 9d ce 0c 3b c4 37 14 bb
       0.018839726 0.021472253 0.0021485456 -0.0022616247
000140 8d fe 1a 3b f6 de 97 bb 5f 9b 21 bc 5f b2 f3 ba
       0.002365026 -0.0046347333 -0.0098637035 -0.0018592587
000150 3b a4 7c 3c 75 f6 4b bc 1a bf 84 bc 38 04 10 bb
       0.015420015 -0.012448897 -0.016204406 -0.002197517
000160 b3 3d cf 3b 75 ab 8d 3c 53 8b bd 3c 52 c6 08 3d
       0.006324494 0.017293671 0.023137724 0.033392258
000170 21 22 32 3c de 69 f8 3b a2 1d 6f bc b2 fd 7e 3b
       0.010872395 0.0075809797 -0.014594467 0.0038908538
000180 32 43 3e bd ac 8c f2 bc 28 bd b5 3c e9 93 0e 3b
       -0.0464508 -0.029608093 0.022184923 0.0021755642
000190 d4 f3 2a 3d 4b 6c 77 3d d6 18 d3 3d 07 66 e6 3d
       0.04173644 0.06040601 0.103074715 0.11249929
0001a0 84 af db 3d ae 98 b4 3d 37 67 9c 3d 72 ac 72 3d
       0.10726836 0.08818184 0.07636874 0.059246488
0001b0 dd 22 86 3d b3 2b 80 3d 35 d2 f1 3d 31 2d 19 3e
       0.065496184 0.06258335 0.11807672 0.14958645
0001c0 0b 1a 47 3e c9 8d 71 3e 78 ef 70 3e ba 9d 6c 3e
       0.19443528 0.23589243 0.2352885 0.23107043
0001d0 ab fa 89 3e ce d8 9f 3e de d4 bb 3e 74 74 ee be
       0.26949057 0.31220096 0.36685842 -0.46573222
0001e0 4d e0 08 3e e0 ce 9c 3d e6 f6 96 3d 16 9b f9 3c
       0.13366814 0.07656646 0.07371311 0.030469459
0001f0 f0 c4 07 3d 2c c6 9d 3b c6 35 b0 bc 98 18 8b bc
       0.0331468 0.0048148837 -0.021510016 -0.0169795
000200 35 d6 ea bc 95 36 87 bc c3 cd f0 bc 49 55 d0 bc
       -0.028666595 -0.016505519 -0.02939499 -0.025431292
000210 47 33 98 bc 50 24 5f 3b b4 69 05 3c 45 9e 9d 3c
       -0.018579138 0.0034048744 0.008142877 0.019240508
000220 6d 06 84 3b db 9d 91 3c 8b 8b 76 bc 47 87 af 3a
       0.0040290863 0.017775467 -0.015047918 0.0013391756
000230 c5 bd 37 bb 73 2a a5 3b de 8e 86 bb 5f f8 06 bc
       -0.0028036695 0.0050404607 -0.0041063866 -0.008237927
000240 b8 53 cc ba 6a f8 a2 3b 48 df 01 3c 70 fd f9 3b
       -0.0015588915 0.004973461 0.00792677 0.007629089
000250 e4 4e fc 37 b6 1d f1 3a 7d ba b2 bb 6d a3 17 ba
       3.0077477e-05 0.0018395695 -0.00545436 -0.0005784545
000260 dc 86 f7 bb 0f fb 3a 3b ef a8 03 ba d7 d8 8e 3a
       -0.0075539183 0.002853099 -0.00050224265 0.0010898364
000270 8b 76 4f 3b 13 45 f6 ba 2f 60 2d 39 66 49 70 38
       0.003165635 -0.0018788896 0.00016534397 5.7288817e-05
000280 2a 8c 0a 3c 50 e4 f5 bd 89 78 86 bd 57 03 83 bd
       0.008456269 -0.12006438 -0.06565959 -0.063971214
000290 42 fb 62 bd dd 7b f9 bc ba 41 04 bd b0 b7 b3 bc
       -0.0554154 -0.03045457 -0.032289244 -0.021938175
0002a0 e6 5d 9b 3c b2 ec b6 3c e6 2f 53 3d 3e 1d 11 3d
       0.018965673 0.022329662 0.05155935 0.03542828
0002b0 21 08 d0 3c f2 c7 25 bd 2c 07 79 bd bb ba a4 bd
       0.025394501 -0.040473886 -0.060797855 -0.080434285
0002c0 73 17 8a be e7 83 51 bd 06 82 15 3e c2 09 c0 be
       -0.26971015 -0.051151183 0.14600381 -0.37507445
0002d0 0b f1 7c 3c a3 32 6e bc da a5 97 3b 39 8e ae 3c
       0.0154383285 -0.01453844 0.0046279253 0.021308051
0002e0 86 b7 f7 3c 75 39 54 3d 18 e1 1f 3d f1 d7 72 3d
       0.030238878 0.051812608 0.039033026 0.05928797
0002f0 ae 89 8b 3d f3 d3 97 3d 77 67 c5 3d 25 09 d2 3d
       0.0681337 0.07413473 0.09638875 0.102556504
000300 17 d0 e7 3d a8 95 fe 3d 91 eb e6 3d 65 16 00 3e
       0.11318987 0.124308884 0.112753995 0.12508543
000310 bd fe 08 3e 12 91 1c 3e 20 a1 d1 3d 61 22 ee bd
       0.13378425 0.15289715 0.1023581 -0.11627651
000320 7d 54 06 3d dc cf 54 3d 76 d3 54 3d c5 52 59 3d
       0.032795418 0.051956043 0.051959477 0.05305745
000330 77 19 44 3d 08 9b 16 3d d6 f4 bf 3c 50 85 1d 3d
       0.047875848 0.036768943 0.023432177 0.038457215
000340 9e a4 16 3d cc 17 3e 3d ca b9 20 3d ff 36 4a 3d
       0.036778085 0.046409413 0.039239682 0.049368855
000350 73 70 41 3d ec da 48 3d 2c 2c 49 3d 50 53 9b 3d
       0.04722638 0.049036905 0.04911439 0.0758425
000360 f8 fd dd 3d 5c 54 a6 3e 1e 7b 15 3f f9 30 dd 3e
       0.10839456 0.32486236 0.58390987 0.43201426
000370 20 9e 9b 3c df 2c a3 3c f3 d6 8c 3d 98 de b1 3d
       0.018996298 0.019918857 0.06876936 0.086850345
000380 2f dd 8f 3d f6 cc 91 3d 9b 7c 82 3d 77 28 81 3d
       0.07024609 0.07119171 0.06371423 0.06306546
000390 e9 9f 96 3d e7 74 98 3d a3 2b b5 3d 8c 86 b7 3d
       0.07354719 0.07444172 0.08846214 0.0896121
0003a0 bd 2d db 3d 7d 36 06 3e 56 1c 15 3e 3c dc 24 3e
       0.10702083 0.13106723 0.1456159 0.16099638
0003b0 8f 5d 55 3e 65 b3 31 3e 49 75 9d 3e f0 a7 2a 3f
       0.20836471 0.1735359 0.30753544 0.666625
0003c0 db 3b 6a bd cd 88 86 bd 3f 27 87 3b 53 a6 49 3d
       -0.05718599 -0.065690614 0.0041245515 0.049230885
0003d0 6d 07 e0 bb c2 98 86 bb 69 a4 0b bc 18 4b 08 bc
       -0.0068368227 -0.0041075656 -0.008523085 -0.008318685
0003e0 14 51 dc 38 59 ee 81 3b ac f4 ae 3b ad 13 8b 3b
       0.000105055195 0.003965181 0.0053392258 0.004244289
0003f0 23 9e 2d 3c f8 d4 54 3c ae 97 b5 bb e1 12 1a 3b
       0.010596785 0.012990229 -0.0055417633 0.0023509788

bias f4 [96]
000000 92 41 12 bc 41 5e 4b 3b e4 0c 65 be 2c b9 31 3c
       -0.008926766 0.0031031522 -0.22368199 0.010847371
000010 0a d9 72 bc ae 3d 23 3d f9 da 25 bd 3c 69 84 38
       -0.014822254 0.039853744 -0.04049203 6.313852e-05
000020 81 f1 4f be 57 7a 85 bd 72 9f 46 bc cc ca 51 bd
       -0.2030697 -0.06517475 -0.012122976 -0.051218793
000030 35 90 a0 3b 3f 9f 5d be 64 5d d0 3c 69 e2 56 3d
       0.0049000033 -0.21642779 0.025435157 0.052462015
000040 12 e4 f1 39 ed 62 b4 bd 2e d3 2b b6 b8 0f b2 3a
       0.00046137028 -0.08807931 -2.5603908e-06 0.0013585007
000050 7e e4 3f 3b 73 4b 5f 3b d2 45 a0 be 36 2a 9b bc
       0.002928048 0.003407207 -0.3130327 -0.018941026
000060 00 9e ff ba aa ee a1 ba 74 52 f7 3c 04 e7 dd 3c
       -0.0019502044 -0.0012354453 0.030190684 0.027087696
000070 96 db 4d be 14 7e 4a bd 6f ee 27 3b db f9 9e bc
       -0.20103297 -0.049436644 0.0025624295 -0.01940625
000080 eb cc 96 3d 4c 31 b9 bd 0f e4 28 bd 94 b7 ba 3d
       0.07363304 -0.09042606 -0.04123312 0.09117046
000090 d9 ac ac bd 09 f9 08 bb 9f bd 51 bc eb b1 d3 3c
       -0.084314056 -0.002090039 -0.012801557 0.025841674
0000a0 6b ec 51 3e 6c 2a 0b 3e c7 eb 41 3d dc ce c2 3c
       0.20500343 0.13590401 0.047343995 0.023780279
0000b0 78 e9 00 bd dc 0d c9 3c aa 4e 75 bc 6b c9 37 3e
       -0.031472653 0.024542741 -0.014972368 0.17947929
0000c0 cf 77 0f bb c7 a7 d1 bd 13 84 f0 bd b5 83 66 be
       -0.002189148 -0.10237079 -0.11743941 -0.2251118
0000d0 d7 68 4d 3e 7e 6e ba 3d 78 b7 a1 3e da cb 03 bc
       0.20059524 0.09103106 0.31585288 -0.0080442075
0000e0 4a d6 3e be 9e ea 88 be cf 50 5b 3e e3 5d 0b 3e
       -0.18636432 -0.267415 0.21417545 0.13610034
0000f0 bd 8a 23 3e f3 93 30 be fc 37 e7 3c b7 99 8d 3c
       0.15970893 -0.17243938 0.028224938 0.017285211
000100 a1 92 03 3b 07 22 e7 3b e6 04 30 3a 7c fe 8e ba
       0.0020076411 0.007053617 0.0006714597 -0.0010909582
000110 85 00 80 3b b7 01 3b 3c 6f e2 3b bc 98 df 55 3c
       0.003906312 0.011413983 -0.01146756 0.013053797
000120 e1 dc a4 bb 63 34 d3 bb 97 07 41 3c 42 ae de 3b
       -0.0050312136 -0.006445454 0.011781595 0.0067956755
000130 0c 70 2e 3c 33 35 4c bc 9f 93 4d bc 30 d6 17 3b
       0.010646831 -0.012463856 -0.012547403 0.0023168437
000140 90 70 37 bb b1 26 c1 3b 91 f5 c8 ba 5f 01 2a bc
       -0.0027990676 0.005894505 -0.0015331974 -0.010376303
000150 d5 30 3b 3c 8a 6b 88 ba 32 08 1e 3b f8 aa 49 3c
       0.011425217 -0.0010408026 0.0024113772 0.0123088285
000160 0d 66 2d bc fb c7 20 bc 7d 6d 87 bb 67 d1 11 bc
       -0.010583413 -0.009813304 -0.004132925 -0.008900023
000170 cd f7 4b 3b 3b d7 24 3c 17 e4 45 3b 22 9d fe bb
       0.0031123043 0.010061081 0.0030195767 -0.0077701965

coefficients f4 [3]
000000 00 00 e0 c1 00 00 40 42 00 00 a8 c1
       -28.0 48.0 -21.0

weight f4 [32, 32]
000000 36 97 28 3c 94 c8 01 3c b3 35 7e bb cc ee b5 3c
       0.010289958 0.007921357 -0.0038789331 0.022208594
000010 67 01 a0 3d 67 e7 f2 3d 58 f5 86 be 90 52 98 3e
       0.078127675 0.11860543 -0.26359057 0.2975049
000020 98 45 ed bd f9 07 52 3e d0 d3 cc bd 35 f8 9a bd
       -0.115855396 0.20510854 -0.100013375 -0.07566873
000030 60 94 54 be 7b 69 40 be b4 dd 8d 3e 10 dd 91 bc
       -0.20759726 -0.18790238 0.2770821 -0.017805606
000040 eb f3 37 be f3 4a 80 be 5a 0b 6a 3e 9b 44 41 3e
       -0.17964141 -0.25057182 0.22855893 0.18873827
000050 5d 83 de 3e 51 c9 50 bd f4 c4 53 be 67 60 7e be
       0.43459597 -0.05097324 -0.206806 -0.24841462
000060 84 24 89 3e ea 41 76 be 2f 09 a1 bd 8a 57 90 bd
       0.26785672 -0.24048582 -0.0786308 -0.07047947
000070 b4 5d d9 3c 67 79 6c be 10 56 5c be 4f 33 c0 3d
       0.026533939 -0.23093186 -0.21517205 0.09384786
000080 60 f8 b2 bd e8 9e 73 bd 98 1d 2b 3e 60 16 6f 3d
       -0.0873878 -0.059477717 0.16710508 0.058370948
000090 8c 06 17 3c 43 e8 12 bb b3 27 93 be 01 1f 80 3e
       0.0092178695 -0.002241627 -0.28741226 0.25023654
0000a0 23 75 a0 3b a7 20 ba 3d e7 1b a3 bd d6 8e 43 3d
       0.0048967763 0.09088259 -0.07964306 0.04774364
0000b0 39 ee d4 bd c4 d1 f0 bd 65 91 f9 be 56 a5 69 3e
       -0.10397 -0.117587596 -0.4874374 0.22816977
0000c0 57 0a 1e be ab b3 94 bd cc 3b f7 3d e0 d2 9b 3d
       -0.15433632 -0.072608314 0.12071952 0.076085806
0000d0 c9 e4 a6 3e cf 68 f0 bc 58 76 b1 bd 02 26 37 be
       0.32596424 -0.029346852 -0.086651504 -0.17885593
0000e0 c9 ba 9c 3d e8 be e8 bd 91 b7 a9 bc 33 11 d8 3d
       0.07652814 -0.113645375 -0.020717414 0.105501555
0000f0 4e 38 ca bb 9f 89 ab be 9c 7d c7 bd 46 f3 4d bd
       -0.006171263 -0.33503434 -0.09740755 -0.05028083
000100 35 14 89 3c 65 95 91 bc 18 72 26 3c 0e 4b 7f bc
       0.016733268 -0.017771432 0.010159038 -0.015581859
000110 59 49 13 3d 6b 1e c8 3b 65 17 84 bb 0d c2 cb 3b
       0.03595862 0.0061071417 -0.004031109 0.006218201
000120 b3 91 b7 bb 10 31 33 3c dd 70 42 bc 45 5e 76 bb
       -0.0056020855 0.01093699 -0.011867729 -0.003759281
000130 82 31 10 bc 40 87 97 bb 38 3f 1c bc a6 70 cf 3b
       -0.008800866 -0.0046242774 -0.009536557 0.0063305674
000140 c7 d4 c0 bb 54 58 07 b8 5a 73 e5 3b 5e 2b f2 bb
       -0.00588474 -3.226877e-05 0.0070022764 -0.0073904237
000150 cd 7b dd bb cd 14 21 3d d9 19 a2 3a 17 e8 23 3b
       -0.006759143 0.039326478 0.0012367322 0.0025010162
000160 00 61 ba bb 71 af e7 3b 6e ac 0a 3c cd 71 f6 bc
       -0.005687833 0.007070475 0.008463962 -0.030083561
000170 ba 41 7c bc e9 4f 15 3c c8 f4 c3 3b fe c2 17 bd
       -0.01539653 0.00911329 0.005980108 -0.037051193
000180 55 4d 06 3c c1 19 a1 3c 4a 9d e5 39 aa 79 8d 3b
       0.008197148 0.0196656 0.00043795473 0.004317482
000190 e8 a1 ac bd 89 7d ec 3b eb f1 3a bb c7 16 ba bb
       -0.08429319 0.0072171134 -0.0028525542 -0.005678985
0001a0 98 fc 6d bc e6 c8 5f bb 1c 4c 79 3c 2f 52 94 bb
       -0.014525555 -0.0034146844 0.0152159 -0.0045263986
0001b0 b1 3f 04 3b b0 cf 0f 3b 8f a9 8d 3b 45 1b 54 3a
       0.0020179565 0.002194386 0.0043231915 0.00080912217
0001c0 c7 c8 85 ba 76 17 78 3b 7b 6c 79 3a b8 7c 8f ba
       -0.0010206931 0.003785578 0.0009514761 -0.0010947203
0001d0 b5 ed 03 3a f3 6d 8d 3c ea 21 a5 ba 76 00 05 bc
       0.00050326745 0.017264342 -0.0012598608 -0.008117786
0001e0 f6 2d 27 3c e3 54 cf 38 96 22 ed 3a 12 33 13 3d
       0.010203829 9.8863406e-05 0.0018091972 0.035937376
0001f0 32 dd 7b bb fe 75 cc bb 61 d7 d5 3a d2 14 82 bd
       -0.0038431403 -0.0062396517 0.0016314798 -0.063516274
000200 b5 64 e2 3d f4 28 67 bc 40 f1 cf 3b 74 70 1b bc
       0.110543646 -0.014108885 0.006345898 -0.00948726
000210 91 96 1c bd f8 6b d8 3b 4c 21 4a bb 6b f3 9d bb
       -0.03822953 0.0066046678 -0.00308426 -0.0048202774
000220 70 eb 8e 3a aa 35 5e 3a 91 01 15 3c 2c d3 02 bc
       0.0010903906 0.00084766245 0.009094612 -0.007984918
000230 e0 74 27 3b 84 2b 63 3b 83 2d 33 bb 0e 24 45 3b
       0.002555184 0.0034663389 -0.002734036 0.0030081305
000240 32 75 03 bc d9 e9 25 ba 26 3f 28 3b 66 da 6f 3a
       -0.008023547 -0.00063290965 0.0025672405 0.00091496704
000250 ba ed 0e 3c 73 59 13 3e ca ea a1 ba 9b b1 ee ba
       0.008723671 0.14389591 -0.0012353298 -0.001821089
000260 23 78 21 bc 4e 50 67 3b 26 5c 93 3a f8 35 b5 3b
       -0.009855303 0.0035295668 0.0011242672 0.005530115
000270 5b 31 95 ba 31 60 c0 3b 73 b4 68 3a aa c2 e5 bd
       -0.0011382507 0.005870842 0.00088769867 -0.1121877
000280 35 06 21 bd c2 42 a4 bc e2 66 68 bc d8 3b 80 bb
       -0.03931256 -0.020051364 -0.014184685 -0.003913384
000290 58 f0 62 bd d7 7c d1 bb 11 3c cb 3a 64 aa 04 bc
       -0.05540499 -0.006393056 0.0015505572 -0.008097265
0002a0 dd cc 84 3a d3 03 37 3c 00 e8 16 3b 11 e3 c7 bb
       0.0010131855 0.011170345 0.0023026466 -0.0061000665
0002b0 86 8c e2 3b 1b 34 45 bc 11 9a 23 bb dd 4e c2 39
       0.0069137244 -0.012036349 -0.0024963657 0.0003706132
0002c0 f5 52 39 bb 7b 83 79 3b 9c 1f 22 bc d3 5c 4d bc
       -0.0028278206 0.0038072753 -0.009895232 -0.012534338
0002d0 f5 45 a1 bb 41 e7 33 bd dc 3a e8 bb 03 a0 85 39
       -0.0049216696 -0.043921713 -0.0070870947 0.00025486955
0002e0 d7 e0 76 3b d0 78 0f bc c0 7d c8 3a fe a6 9d 3c
       0.0037670636 -0.008756831 0.0015296265 0.019244667
0002f0 18 22 60 b9 42 1b 2c bc 6e 12 f1 3a 82 43 fb 3d
       -0.00021375006 -0.010504546 0.0018392333 0.122687355
000300 b7 e6 5c bd 8b 4b 0c bd 95 60 b8 3d de 05 99 3d
       -0.053930964 -0.03425173 0.090027966 0.07471822
000310 01 91 88 bc 45 89 ec bb 5d 24 8d be 46 ad 80 3e
       -0.016670706 -0.0072185122 -0.27566805 0.25132197
000320 a0 16 12 bc dc 63 c0 3d 29 84 93 bd 81 e7 3b 3d
       -0.008916527 0.09394047 -0.07202942 0.045875076
000330 92 d5 78 bd 17 b0 00 be 84 e5 e5 be 66 12 6f 3e
       -0.06075055 -0.12567173 -0.4490167 0.23346862
000340 5e 8d c5 bd c1 7a af bd f4 10 04 3e a8 bd aa 3d
       -0.09646104 -0.08568335 0.12897092 0.08336955
000350 2a 42 ac 3e a0 99 b9 bd 8f 14 b3 bd 23 50 f7 bd
       0.3364423 -0.09062505 -0.087441556 -0.12075832
000360 99 0c e5 3d fc 95 f7 bd 93 85 e9 bd da 5b 1c 3e
       0.111840434 -0.12089154 -0.114024304 0.15269414
000370 d7 77 2c bc 31 be bf be 24 8e b9 bd a9 2a 27 bd
       -0.010526619 -0.37449792 -0.09060314 -0.04081217
000380 3a 0b a4 bd 30 9a fc bc 12 95 9e 3c 79 40 16 be
       -0.08009954 -0.030835241 0.019358192 -0.14673032
000390 85 e7 54 3c 26 49 78 3b 15 34 f6 bb 10 1c 69 3b
       0.012994652 0.0037885397 -0.007513533 0.0035569705
0003a0 de 67 b5 ba 9c 13 9c ba 91 18 9b bc e6 04 70 3b
       -0.0013840159 -0.00119077 -0.018932613 0.0036624013
0003b0 6f 02 00 3c 98 87 da bb 8c c2 79 bc 3f db 0c bc
       0.00781308 -0.006668996 -0.0152441375 -0.008597194
0003c0 34 46 5c 3b 71 8c 44 3b a5 c4 58 3b cd 3a d4 bb
       0.003361118 0.0029990936 0.0033076194 -0.006476736
0003d0 e9 6b 0c bc 25 38 98 bb f3 ed e2 3b df a8 42 37
       -0.00857065 -0.004645365 0.0069253384 1.1602619e-05
0003e0 38 0c 96 bb 27 64 4a bb c3 9d 62 3b 75 e9 bc bc
       -0.0045790933 -0.003088245 0.0034578897 -0.02306054
0003f0 01 25 2a bb d8 f3 8b 3b ab 22 81 bb 01 f9 94 3d
       -0.0025961997 0.004271012 -0.0039409003 0.07274056

bias f4 [32]
000000 77 50 3a 3e 19 e8 35 3d 22 0b 04 3a ed ac e0 bb
       0.18194757 0.0444108 0.00050370593 -0.006856552
000010 50 2f eb 3a 1d e0 d9 ba 1d 07 45 3d 9a 1c 3f 3b
       0.0017943177 -0.0016622577 0.048102487 0.0029161335
000020 ef 8f ab 3a 64 22 a3 bb 45 ad 8e 3b c3 f9 11 bf
       0.001308916 -0.004978465 0.0043541514 -0.5702173
000030 ad dd 53 ba bb f4 f0 be c8 11 1a 3e 7f ea 7c 3b
       -0.00080820435 -0.47061715 0.15045846 0.003859192
000040 36 ba b3 ba ed 1f 0d bf c0 a3 8c 3d 11 5c a0 bb
       -0.0013712111 -0.5512684 0.0686717 -0.0048937877
000050 e7 19 c1 3a 61 e5 21 bb 2e 43 9d 3b e1 58 0d bf
       0.0014732451 -0.002470337 0.004799268 -0.55213743
000060 a6 b1 04 3e 76 70 09 bf 14 38 8c 3d d9 32 62 3d
       0.12958393 -0.53687227 0.068466336 0.055224273
000070 43 f6 b6 3d 7d 23 54 3b c2 e5 80 be 61 36 cf ba
       0.089336894 0.0032369785 -0.2517529 -0.0015809053

weight f4 [96, 32]
000000 8e 6f 3b 3b 92 04 1d bb 2d a7 60 ba df 8c 0c 3b
       0.0028600427 -0.0023959023 -0.0008569833 0.002144627
000010 7f 4d 9a bc d4 b2 d4 3b 17 68 c2 3a 0a db 6b 3b
       -0.018835781 0.0064910445 0.0014832047 0.0035988712
000020 34 6c 6d bc 42 a6 9f bc d1 e6 62 3c 96 6f 58 bc
       -0.01449113 -0.019488458 0.013848976 -0.013210198
000030 bd 3d 9f bb 85 b4 b0 3b b7 9d 80 bc bd f8 bf 3b
       -0.0048596547 0.0053926134 -0.015700204 0.0058585093
000040 a6 ab 2e bb b7 e6 28 bb 83 6d 3a 3a 1f 25 71 3c
       -0.0026652603 -0.0025772282 0.00071116554 0.014718323
000050 2c e2 d4 3b 2b 55 92 3b 59 35 00 3c 23 e5 81 bb
       0.0064966884 0.004465719 0.007825219 -0.003964083
000060 4e aa d5 bb 85 1d 82 bb 8f 16 b4 bb 17 5c 97 ba
       -0.006520546 -0.003970804 -0.0054958533 -0.0011547831
000070 67 88 a0 bb 00 88 73 bc 84 75 ba 3c 6a 22 de bb
       -0.004899073 -0.014863968 0.022761114 -0.006779005
000080 c9 79 0c 3b 24 2c 25 bb 08 29 04 3b 51 c3 49 bc
       0.0021434894 -0.0025203312 0.0020166058 -0.0123146335
000090 6c 13 d4 3a 2a 1f 14 bc 61 c7 a0 3b 5e bd d6 bc
       0.0016180105 -0.009040633 0.0049065803 -0.026213344
0000a0 54 f0 85 39 2f b7 45 3c de 46 06 3c 7a ed 15 b8
       0.00025546795 0.0120676 0.008195607 -3.5745536e-05
0000b0 35 44 17 3c 4f 1d e7 3a f7 6f 31 bc 86 c6 63 bb
       0.00923257 0.0017632636 -0.010829917 -0.003475578
0000c0 b0 07 4f 3c a7 dd 03 3c 5d d7 18 3c 4f 53 c5 3a
       0.01263611 0.0080484515 0.00932869 0.0015054735
0000d0 e4 cc b5 bb 5e 01 69 bc 5c 73 f7 39 2c bc 09 3b
       -0.0055481065 -0.014221517 0.0004719746 0.00210167
0000e0 3a e6 aa 3b db 3c 5b 3b 1f d2 0b b9 3c 46 39 3b
       0.0052154334 0.003345302 -0.00013334349 0.0028270623
0000f0 29 1c b4 bb e0 6d 29 3b 24 90 ef bb ff ac 52 3b
       -0.005496521 0.0025852844 -0.007310884 0.003214657
000100 f4 03 e8 3e 34 43 eb 3d db eb ce 3a cf f5 6d ba
       0.45315516 0.11487427 0.0015786843 -0.0009077461
000110 19 3a 21 3a 03 97 05 ba 28 9e 04 3e 12 70 be 3a
       0.000615032 -0.000509605 0.12950957 0.0014529249
000120 c3 ac 7c 39 3f c2 10 b9 a1 9e 77 3a a1 4d d7 be
       0.00024096952 -0.00013805272 0.000944594 -0.42051414
000130 6e 27 c9 ba 78 98 3f be e3 52 be 3e 7c 85 8e 39
       -0.0015346834 -0.18710506 0.37172613 0.00027183804
000140 fc 42 5b 3a 4e 3f d5 be 25 7e 27 3e 95 51 6c 3a
       0.00083641685 -0.4164986 0.16356714 0.0009014842
000150 90 9b a4 3a 25 32 7d ba ec 4f 61 3a 65 b1 c4 be
       0.0012558568 -0.0009658656 0.0008594978 -0.3841659
000160 be 32 a5 3e 67 a2 bc be b8 05 29 3e d4 cc 18 3e
       0.32265276 -0.36842653 0.16506088 0.14921886
000170 e2 95 64 3e 92 99 19 b9 31 6c 90 be fe 7f a9 b9
       0.22322801 -0.00014648426 -0.28207543 -0.00032329554
000180 27 63 25 bd 1b 4a 26 bd 93 ef ae 3c 5b f0 89 3b
       -0.040377762 -0.040598016 0.021354472 0.004209561
000190 67 d0 0c bc 4c 83 16 3b c1 02 44 bd ee a6 9e 3b
       -0.008594609 0.0022966443 -0.04785419 0.004841677
0001a0 45 9f d3 3a 8f db 92 bc 50 9f 2f 3c 1c 49 a9 bb
       0.0016145488 -0.01792696 0.010719135 -0.005166186
0001b0 f5 75 ea bb da db e7 bc 98 4f 05 bd af 7c 56 bc
       -0.007155175 -0.028303076 -0.03254661 -0.01309125
0001c0 9b a6 6d 3c ea 44 f2 bb 22 5d 44 bd 54 3a 5f bc
       0.014505054 -0.007393469 -0.04794038 -0.013624746
0001d0 ab 4c a1 3c d5 0a 92 bc 6c 78 3c 3c 67 bf 39 bc
       0.019689878 -0.01782743 0.01150332 -0.011337138
0001e0 e7 94 18 bd 2d c1 a4 bc ac 02 15 bd 86 95 40 bd
       -0.03725138 -0.020111645 -0.0363795 -0.047017597
0001f0 66 e0 02 bd b1 ce 82 bc 0c 56 17 3b d0 c6 7f bb
       -0.031952284 -0.015967699 0.002309206 -0.0039028414
000200 0e 2a 63 bd d9 bd 14 bd 0f 32 11 bc c5 9d af bb
       -0.05546003 -0.036313865 -0.008862033 -0.0053593838
000210 46 e1 b9 3a 4e f9 ec 3b 0c 30 23 bd f2 9e e5 bb
       0.0014181517 0.007231868 -0.039840743 -0.007007473
000220 ae 4d 82 bc 3d a3 3f 3b d7 99 1e 39 7c 7b bd 3b
       -0.015906181 0.0029241585 0.00015125364 0.0057825428
000230 8b f7 5b 3c 7e cb 10 bc 43 d6 52 bd d9 fa 8e bc
       0.013425718 -0.008837579 -0.051473867 -0.017453598
000240 ec c5 ea 3b 7e ea a0 3b 83 e6 4e bd 68 42 e8 bc
       0.0071647074 0.004910766 -0.0505128 -0.028351977
000250 e3 e5 10 3c 27 c1 c8 bb 41 92 ee ba ce 35 2a 3b
       0.008843872 -0.006126541 -0.0018201546 0.0025972011
000260 0e 97 50 bd 2d 8c b7 3a 63 61 15 bd a9 e6 45 bd
       -0.050925307 0.0014003568 -0.03646983 -0.048315678
000270 03 79 41 bd 67 ec 80 3c f8 7f a8 3a 94 ae 03 3c
       -0.047234546 0.015737725 0.001285552 0.008037228
000280 58 39 3e bd a6 69 2a 3d 8a 60 4b 35 97 e4 dc b8
       -0.046441406 0.04160466 7.5763876e-07 -0.00010532996
000290 ff 32 38 38 fe 5f d3 b8 e1 0b 20 3d e6 16 a2 b8
       4.3916512e-05 -0.00010079144 0.03907383 -7.729027e-05
0002a0 4d 1c 49 b9 9b cf 02 b6 55 96 56 b7 12 46 b5 3e
       -0.00019179397 -1.9492352e-06 -1.2790396e-05 0.35405022
0002b0 c6 21 06 b8 fa e1 32 3e 15 95 dd bc c0 0c 8d 38
       -3.1979544e-05 0.17469016 -0.027048627 6.725779e-05
0002c0 52 e6 de b7 3d c8 b4 3e 98 5f f6 3c a4 67 63 b9
       -2.6571714e-05 0.3530902 0.03007488 -0.00021687016
0002d0 34 c0 26 39 5a 69 59 b9 65 b8 b1 37 be 2f b1 3e
       0.00015902595 -0.00020733979 2.118591e-05 0.34606737
0002e0 9b b9 cf bb d6 84 b4 3e 99 68 e2 3c 02 19 03 3d
       -0.0063392646 0.35257596 0.027637767 0.03200627
0002f0 f7 a4 58 3c d5 60 6a 37 2d 3b 3f 3e 6d e6 a8 38
       0.013222924 1.3970032e-05 0.18674918 8.0537844e-05
000300 73 cf ef 3b ff 69 09 3c 07 78 09 3c 26 a9 6e 3a
       0.007318431 0.008387088 0.008390433 0.00091041846
000310 08 82 c7 bb 28 f3 fb 39 51 7b 17 bc e0 f4 57 3b
       -0.006088499 0.00048055616 -0.0092457095 0.0032952353
000320 5b eb 4c ba 1b 99 bc b9 fa cd 53 3b bb 49 5e bc
       -0.0007817053 -0.00035972227 0.0032318817 -0.013567383
000330 70 f5 77 bb 0e 8d 0e 3c 0d e5 87 bb 61 77 37 bb
       -0.00378355 0.008700622 -0.004147178 -0.002799474
000340 49 65 1e 3b 3c 4c 62 bc 92 0d 8f 3a d8 b1 3e 3b
       0.0024169257 -0.013812121 0.0010914078 0.0029097702
000350 7f 66 b0 ba 3e c7 58 bb 60 e4 19 bb 73 63 7d bb
       -0.0013458281 -0.0033077742 -0.002348207 -0.0038664013
000360 df 04 ef bb 0b 43 52 bc 97 38 11 3b 2b df 25 bb
       -0.007294282 -0.012833367 0.0022158974 -0.002531002
000370 f3 81 8f bb 69 ad ba 3b 52 65 86 3d 0c e5 16 3b
       -0.004379505 0.0056969416 0.06562294 0.0023024706
000380 c5 5c 16 bc 4c e6 93 3b 59 ae df bb 7a d4 43 bc
       -0.009177391 0.0045135375 -0.006826204 -0.011952514
000390 28 7d d1 3b 0f a2 cc bb f2 7c 48 3c a2 c4 17 bc
       0.0063930936 -0.006244905 0.0122368205 -0.0092631895
0003a0 32 6c a3 3b 17 98 12 bc b4 bd 63 3a 39 06 e8 ba
       0.004987263 -0.008947394 0.0008687631 -0.001770205
0003b0 08 a9 51 3b a3 69 fc b9 b6 dd aa bb 3d f5 4f bb
       0.003199162 -0.0004814389 -0.0052144183 -0.0031731867
0003c0 5b d8 e7 3a 47 91 f9 bb 27 e4 c3 ba 05 95 f9 3b
       0.001768838 -0.0076161954 -0.0014945314 0.0076166415
0003d0 36 27 fb 3a 56 c9 85 3a 59 ad 62 bb 0e 81 fa 3a
       0.0019161466 0.0010207098 -0.0034588187 0.0019111948
0003e0 5f a3 dc bb ad cf 08 3b 76 70 f4 3a be b9 19 3c
       -0.0067333425 0.0020875738 0.0018649239 0.009382663
0003f0 01 15 52 3b 61 93 e3 3a 1b a7 51 bc d9 8d 3d bb
       0.0032055976 0.0017362648 -0.012796189 -0.002892366

bias f4 [96]
000000 0a e3 83 3a 99 81 3d 3b 04 9b 33 3e 11 a6 90 3c
       0.001006217 0.0028916358 0.17539603 0.017657312
000010 b6 23 2e bc e2 a7 3b be 80 a4 19 3b a0 bc 90 39
       -0.010628631 -0.18325761 0.0023443997 0.00027606357
000020 ce 2c 26 be 77 ec 90 bc f1 3d e1 3d ff 25 14 3e
       -0.16228029 -0.01769088 0.109981425 0.1446762
000030 e8 8a f8 3b 04 2e a0 3e e0 c7 92 3e 1e 36 9c 3d
       0.0075849183 0.31285107 0.28668118 0.076275095
000040 42 6f e9 bb 02 0f ba 3d f4 67 80 bb 61 9c a4 3a
       -0.0071238587 0.09084894 -0.003918642 0.0012558812
000050 52 64 ac 3b 1e 8a 84 bb 33 d3 e8 bc 2e 59 1f 3e
       0.0052609826 -0.004044785 -0.02842102 0.15561363
000060 c7 97 d7 39 f8 9f 12 3b 75 5a c3 3b 2d fa 36 3e
       0.00041121079 0.002237318 0.005961711 0.17868872
000070 c2 de 0a be dd b4 2e 3c c1 d6 2c 3b b9 dc 48 3a
       -0.13561538 0.010663238 0.002637312 0.0007662285
000080 ab e3 2e bd 80 cd 91 3c 60 b6 78 be 17 31 25 be
       -0.04269759 0.017798185 -0.2428832 -0.16132008
000090 9a 4b d2 be 8e 76 a3 3d ad ff 65 bd 0a c6 4e be
       -0.41073304 0.07981597 -0.056152035 -0.20192733
0000a0 32 eb b9 3c c3 ee b9 3d 09 26 7a be b2 0d 49 bc
       0.022695158 0.09078743 -0.24428572 -0.012271332
0000b0 ee a4 e6 3d d1 aa 5a be bc 8f 90 3d 2e b0 cf bb
       0.112619266 -0.21354224 0.07058665 -0.006338141
0000c0 20 a1 1d 3d b3 71 db bd cc c9 87 3e 77 63 35 be
       0.03848374 -0.10715046 0.26521146 -0.17713724
0000d0 0b 6b 12 bd 52 35 50 3e 5a bd 9a bd 76 71 be b8
       -0.035746615 0.2033284 -0.07555647 -9.08104e-05
0000e0 73 cb 71 bd 5b ba 9c be 80 dc 0b be 0c 0b 4b be
       -0.059031915 -0.30610928 -0.13658333 -0.19828433
0000f0 a9 e9 f7 3e 58 22 d9 bc 51 7b b3 3e 41 87 17 bd
       0.48420456 -0.026505634 0.3505502 -0.036994223
000100 2a df 1e 3c 4f ae 2c bc 2c a4 2a 3a b9 7c 29 3c
       0.009696761 -0.010539605 0.0006509449 0.010344678
000110 3c 47 c6 b9 b3 8f 20 3c 64 3a 17 bb c5 a8 11 bc
       -0.00037818577 0.009799886 -0.0023075575 -0.008890335
000120 1c 2f fd bb 19 0d dc bb 60 ea e8 3a 1b 13 3c 3b
       -0.007726563 -0.0067154285 0.0017770045 0.0028697911
000130 1c a3 d8 bb 04 cb 29 3c cc bc c1 3b f5 dd df ba
       -0.006611241 0.010363344 0.005912399 -0.0017079698
000140 8f 9f 18 bc 55 a9 00 3c 2f 06 8a 3b 38 d8 28 bc
       -0.0093153855 0.007852872 0.004212163 -0.010305457
000150 0f 59 e3 bb 64 75 80 3a 8a 7e 97 bb 68 23 c5 3b
       -0.006938107 0.000980061 -0.004623239 0.0060161836
000160 df 50 fd bb 0b 59 bc 3b e3 d9 1e bc 5c bd 69 3a
       -0.007730588 0.0057479194 -0.009695503 0.00089164614
000170 73 2b f7 3b 39 6b 19 b8 2b 07 76 3b bc 78 94 3b
       0.0075430213 -3.65779e-05 0.0037540894 0.004530994

frequencies f4 [20]
000000 4f 2f 27 3f eb ba 0d 3f fc 59 38 3f f4 a8 32 3f
       0.6530656 0.5536334 0.72012305 0.6978905
000010 df f6 27 3f f2 da 35 3f 57 6c 49 3f ff 70 6b 3f
       0.6561107 0.7103721 0.7868094 0.91969293
000020 b0 40 82 3f 98 87 83 3f 6b a5 84 3f 4c f8 8a 3f
       1.0175991 1.0275755 1.0362982 1.0857024
000030 ae 67 93 3f 61 91 be 3f df fe fc 3f f5 f7 e0 3f
       1.1516016 1.4888116 1.976528 1.757567
000040 01 6f c3 3f eb 30 e9 3f a1 b8 2d 40 11 a1 79 40
       1.5268251 1.8218054 2.7143939 3.9004557

weight f4 [96, 20]
000000 63 cb a9 3a b4 59 b4 3b b8 c3 44 3d 09 5f c9 3d
       0.0012954291 0.0055038575 0.048038214 0.0983258
000010 12 d7 9c 3d ae f7 b9 3d 99 5a a9 3d c3 61 38 3d
       0.07658209 0.09080444 0.08269233 0.045015108
000020 03 e0 00 3c 4e c1 82 3c 5c ed e9 3a 72 ca 0b bc
       0.007865909 0.015961315 0.0017847228 -0.008532153
000030 c2 6e 05 bd 22 36 f3 bc 07 ed 45 3e 9d a6 25 3e
       -0.03257633 -0.029688898 0.193287 0.16176839
000040 77 76 62 3d b9 aa ef 3e 4c b5 c9 bd 87 12 ad be
       0.055288758 0.4680994 -0.09849033 -0.33803198
000050 ae 9f e1 bc b5 57 2a bd c7 17 1d bd fb e0 47 bd
       -0.027541962 -0.04158755 -0.038352754 -0.048798542
000060 56 64 ba bc c3 43 9d ba 4f 75 b7 ba 9a 8b 35 3c
       -0.022752922 -0.0011998344 -0.0013996753 0.011080647
000070 66 ad bd 3c 10 f2 f5 3c 71 22 c3 3c a2 5e 72 3d
       0.023153972 0.030022651 0.023820134 0.05917228
000080 ad 45 cc 3d 2b 7d 4a 3e 6e 11 ad 3e 47 4c 71 3e
       0.09974227 0.1977431 0.3380236 0.23564254
000090 06 ad 52 3e 25 d9 6d 3e c9 04 ae 3e b8 5e 85 3d
       0.20573816 0.23227365 0.33988026 0.06512207
0000a0 29 ac 40 3a 00 ad 4b 3c 30 80 26 3d cf 2a ff 3d
       0.00073498726 0.012431383 0.040649593 0.12459337
0000b0 cd 51 2f 3d 92 76 b5 3c 8f c3 83 3d e6 32 ca 3d
       0.04280262 0.022151265 0.06433784 0.09872989
0000c0 f7 a8 00 3e 85 57 dc 3d 91 91 08 3e 1c 6c fb 3d
       0.12564455 0.107588805 0.13336779 0.122764796
0000d0 ee 78 05 3e 59 b5 e5 3d 03 58 83 bc 1a 0b 95 bc
       0.13034412 0.1121623 -0.016033178 -0.01819377
0000e0 7c 2f 7a 3a a8 3f 16 be 56 7b a9 be 6c 54 51 bd
       0.0009543819 -0.1467272 -0.3310191 -0.0511059
0000f0 62 60 d4 3c 3a e9 38 3d 43 3b a2 3d 8f 46 9c 3d
       0.025924865 0.045144297 0.079214595 0.076306455
000100 97 10 84 3d b9 78 4f 3d 61 5a 80 3d cb 3f 6b 3d
       0.06448477 0.05065224 0.062672384 0.057433885
000110 ad 86 4a 3d d6 42 83 3d 66 70 33 3d 12 57 4f 3d
       0.049444843 0.06409232 0.043808363 0.050620146
000120 d8 34 23 3d cd aa a7 3d 1a 00 4b 3e 4b e2 56 3e
       0.039845318 0.081868745 0.19824257 0.20984761
000130 c7 09 23 3e 50 fb ca 3e 1b f3 c1 3e 8c 18 1d bc
       0.15921699 0.3964486 0.37880787 -0.009588372
000140 80 f0 a0 3e 40 00 90 3e ff 41 d9 3e 8c df 91 3e
       0.31433487 0.2812519 0.42433164 0.28490865
000150 ad 2e 76 3e 6b 98 71 3e d3 87 3c 3e cc cd e4 3c
       0.24041243 0.23593299 0.18411188 0.027930163
000160 8b 28 b1 bd 7b cb 86 bd c6 41 b6 bd 7b ab be bd
       -0.08650311 -0.065817796 -0.08899264 -0.09310051
000170 66 28 12 be 79 33 86 be 75 33 e6 3d 49 74 32 bc
       -0.14273223 -0.26211146 0.112402834 -0.010891982
000180 3b 5c 22 be db ac 7a 3e 6d 18 5e 3d e3 7a 5e bc
       -0.15855496 0.24480002 0.054222513 -0.013579103
000190 6e 04 cd bc bb 0b 46 bd 63 54 d5 ba 06 b2 87 bc
       -0.025026526 -0.04835103 -0.001627576 -0.01656438
0001a0 a8 57 04 bc 9e 50 a4 bc ec bf c8 3b b1 f0 8b bc
       -0.0080775395 -0.020057973 0.0061263945 -0.017082544
0001b0 d7 92 02 bc ec c7 c7 bc a8 b0 90 bb 60 f2 ef bc
       -0.00796958 -0.024387322 -0.0044155903 -0.029290378
0001c0 a4 2b 0d bd c5 44 74 bd 9a c9 e1 bd de 59 19 3c
       -0.034465447 -0.059635896 -0.110247806 0.009359805
0001d0 5f 41 c4 3c dd 2e a2 3c 1c 83 12 3f 02 62 f9 3e
       0.023956953 0.019797737 0.5723131 0.48707587
0001e0 ed 86 84 3c 8a 8e c6 bb a7 17 02 bd b7 b3 e1 bd
       0.016177619 -0.0060594724 -0.031760838 -0.11020606
0001f0 ed 2d bf bd 0a 04 92 bd bd cd aa bd 88 77 e4 bd
       -0.093349315 -0.07129677 -0.08340023 -0.11155611
000200 37 4e e1 bd 75 11 cc bd e2 6d de bd 92 5f c1 bd
       -0.110012464 -0.09964267 -0.10860802 -0.09442057
000210 89 aa e5 bd 4c 37 e4 bd 31 da 45 be f1 e0 6c bd
       -0.112141676 -0.111433595 -0.19321515 -0.05783171
000220 65 4d 26 bd 7a 85 1b 3e a8 74 63 3f 95 c5 c5 3e
       -0.040601153 0.15187636 0.8884988 0.38627306
000230 c7 c6 c7 3d 9f 9f d0 3d 30 db 0a 3e 0f f4 81 3d
       0.09754711 0.10186695 0.13560176 0.063453786
000240 6f f2 47 3d 19 d2 c0 3d 1a 6a ba 3d 83 84 c7 3d
       0.048815187 0.09415073 0.091022685 0.097420715
000250 2e 27 84 3d bb 5b 67 3d 5e e9 82 3d 1d cc 36 3d
       0.064527854 0.056483965 0.063921675 0.04462825
000260 c5 26 c4 b9 8c bf 2d be 52 d1 63 bc dc 8c ba bd
       -0.0003741292 -0.169676 -0.013904886 -0.09108898
000270 0c c8 16 be f1 0a 7d 3e 60 5d 0e be e1 1d a4 bd
       -0.1472475 0.24711205 -0.13902807 -0.080135114
000280 be 36 0e 3c 2f 61 b6 bb 2c 30 f0 bc 99 52 e5 3c
       0.008680044 -0.0055657844 -0.029319845 0.027993487
000290 43 e4 d4 3c 47 67 9f 3c 27 a0 95 3c 76 e0 9e 3c
       0.02598775 0.019458426 0.018264843 0.01939414
0002a0 be 63 2f 3d 0c ff d3 3c c9 11 30 3d 3e 42 14 3d
       0.04281973 0.025878452 0.04298571 0.036195986
0002b0 6a d6 a8 3d 0a bc e2 3d 15 5b 80 3d 51 dc c0 3d
       0.08244021 0.11071022 0.062673725 0.09417022
0002c0 48 ce 0e 3e ae 65 70 3d 20 b1 25 3f 89 04 d8 3e
       0.13945878 0.05869072 0.64723396 0.4219096
0002d0 61 3f a1 3c 2a 75 aa 3c aa 31 c2 3c 0d 57 53 3d
       0.019683542 0.020807821 0.023705322 0.05159669
0002e0 b1 79 91 3c cb 36 9d 3c cf 57 27 3d 22 e3 a2 3d
       0.017758222 0.019191166 0.040855225 0.079534784
0002f0 97 a6 d1 3d a3 e8 d5 3d 54 e6 cb 3d 8b ff df 3d
       0.102368526 0.104447626 0.09956041 0.10937413
000300 79 59 d7 3d 96 f7 03 3e ff bc 97 3d 92 01 c9 3d
       0.105151124 0.12887415 0.07409095 0.09814753
000310 e6 01 e9 3d 34 75 0e 3d e2 8d 02 be 69 e9 87 be
       0.11377315 0.034779742 -0.12749436 -0.26545265
000320 b5 c4 84 bd 96 0f 4c bd a1 f0 84 bc fc 70 cd bc
       -0.064828314 -0.04981955 -0.016228022 -0.02507829
000330 4e 70 63 bd 28 77 7d bd c9 d3 2a bd ae cb 2b bd
       -0.055527024 -0.061881214 -0.04170588 -0.04194229
000340 f8 b6 85 bd 13 d5 8e bd 5e 01 84 bd b0 35 83 bd
       -0.06529039 -0.069742344 -0.06445573 -0.064067245
000350 8c 35 76 bd 81 87 8c bd 54 f3 03 be 7d f6 24 be
       -0.06010966 -0.06861783 -0.12885791 -0.16109653
000360 e6 9a ee bd 92 b1 b0 be 1e 4d 89 3d b4 21 c2 3e
       -0.11650638 -0.34510475 0.06704162 0.37916338
000370 16 2a 95 3b f4 b7 0c bc d1 a1 1f bb 1f ee fd b9
       0.004552136 -0.00858878 -0.0024357925 -0.00048433334
000380 2a 6c d9 3b 2c c7 35 3b 12 da 02 3c fe 2c c6 bb
       0.0066352086 0.0027737124 0.007986562 -0.006047844
000390 72 f0 31 bd 4c 08 0c bd 58 c1 30 bd fa 92 4f bd
       -0.043442197 -0.0341876 -0.043153137 -0.050677277
0003a0 05 d2 81 bd c1 c9 be bd 75 85 7b bd bf f8 7e 3a
       -0.06338886 -0.09315825 -0.06140657 0.0009726397
0003b0 e5 92 3e bc 0a e2 88 3d 0c f4 68 be 90 28 39 bf
       -0.011631702 0.066837385 -0.22749346 -0.7232752
0003c0 e8 1c 35 bd 50 11 db bd bc 5a 3e bd f8 d0 7f 3d
       -0.04421702 -0.106966615 -0.04647325 0.062455148
0003d0 e1 a3 23 3d f0 04 4f 3d ee 72 b5 3d 72 46 f9 3d
       0.03995121 0.05054182 0.08859812 0.121716395
0003e0 f6 1e 14 3e 12 74 1b 3e c5 ef 26 3e 80 a4 1c 3e
       0.14464936 0.15180996 0.16302402 0.15297127
0003f0 de e9 03 3e 3e 90 49 3d 8b c1 80 3a 9b 0d 93 bc
       0.12882182 0.049209826 0.0009823305 -0.017950824

bias f4 [96]
000000 3e 78 98 3c 95 87 f0 3d cd 27 6d 3e 52 9c a9 bd
       0.018612023 0.1174461 0.23159714 -0.08281769
000010 9f 2e 18 bf 2b a8 20 bd 4f ae f6 bc db d5 9d be
       -0.5944614 -0.039222877 -0.030112414 -0.3082722
000020 57 97 dc 3c 13 f4 08 3e 9f c6 a7 bd ac 08 ce bb
       0.026927633 0.13374357 -0.08192181 -0.006287655
000030 de 6c 93 bd cd c0 52 bd 03 e7 a7 bd 37 0c e4 3b
       -0.07198499 -0.0514534 -0.08198359 0.006959464
000040 52 3a 91 bd 5b c3 8d bd b3 78 3f be ae c4 b6 bb
       -0.07091202 -0.06922027 -0.18698387 -0.0055776453
000050 88 c3 8b bd 68 cb 10 3d 78 57 22 bd 72 72 82 bc
       -0.06824404 0.035350233 -0.039634198 -0.015923712
000060 65 8f 6f 3d b8 88 8d 3d 17 1e 2f ba 7d 71 7e bd
       0.05848636 0.06910843 -0.0006680204 -0.06211995
000070 87 dc a2 3d 98 a1 e3 3d ce d8 11 be b6 eb 19 bd
       0.079522185 0.11114806 -0.1424286 -0.037578307
000080 16 2a cd be 6d 43 8c bd 56 2a 4f 3d 2b 91 93 3c
       -0.40071172 -0.06848798 0.050577484 0.018013557
000090 1e c9 00 3e 8f d7 31 3d a7 df ea 3c 1f ad 81 3b
       0.1257672 0.043418463 0.028671099 0.003957405
0000a0 ab 6d 24 be d4 fb 8e 3c eb c3 ae bd 54 0e ab bc
       -0.1605746 0.017454065 -0.08533462 -0.020880856
0000b0 34 30 fd 3b 28 7a 80 bd 70 a5 81 bd 20 2f ca b9
       0.0077266935 -0.062732995 -0.06330383 -0.00038563553
0000c0 c8 fb 03 3c a6 c4 94 bd bd 7e 79 bc 8b e1 7a bd
       0.008055635 -0.0726407 -0.015227971 -0.06125025
0000d0 73 e9 7b bd fe 78 01 bd 4b 43 95 3e 13 e0 ae bd
       -0.06150193 -0.031609528 0.29152903 -0.085388325
0000e0 0f 24 4f 3d 80 ec a6 3d a0 22 86 3d ab 8f 50 be
       0.050571498 0.081505775 0.06549573 -0.20367305
0000f0 f3 bb 02 3e 98 f0 ca bc 66 62 55 3b 8c af 40 3d
       0.1276701 -0.024772927 0.003255987 0.047042415
000100 3f ff 82 3d 4a 37 e4 bc 81 cf 35 3d 18 fd 0f bd
       0.063963406 -0.027858395 0.044387344 -0.03515348
000110 e9 9f 03 bd 37 c0 42 bd 30 8b f6 3c 7d ff 84 bd
       -0.032134924 -0.04754659 0.030095667 -0.06494043
000120 dc b6 d7 bd 4a 13 96 bc 20 23 f3 bc bf b1 f3 bd
       -0.105329245 -0.018319745 -0.029679835 -0.11899137
000130 32 dc be 3c 0f 8e 19 bd fa 2c e4 39 c3 d9 19 3d
       0.023298357 -0.037488993 0.0004352106 0.03756119
000140 bc 0b 01 3d 0a b7 a9 3c 8f 32 6a 3d 50 e9 47 be
       0.03150533 0.020717163 0.057177123 -0.19522595
000150 1a ce 6c bd 43 f2 3a 3b 2f a4 6b 3d 37 9f 0e 3d
       -0.05781374 0.0028525747 0.057529625 0.034819808
000160 42 ac 92 3d a1 93 84 3d 45 e3 0b 3e 80 fc 18 3d
       0.07161762 0.064734705 0.13660915 0.037350178
000170 c2 02 a8 bd ec 9f e7 3d 81 e3 47 bd 71 88 7c 3d
       -0.08203651 0.113097996 -0.04880095 0.06165356

coefficients f4 [3]
000000 00 00 e0 c1 00 00 40 42 00 00 a8 c1
       -28.0 48.0 -21.0
